tmp/checkpoint.pt (torch_old, 10445 bytes, 8 tensors)

ln1.weight f4 [100, 10]
0	0x3ce05293	0.027383124
1	0xbdf6972d	-0.12040553
2	0xbeb003de	-0.3437795
3	0x3ecff14f	0.4061379
4	0x3f01026a	0.5039431
5	0x3f1133cf	0.5671968
6	0xbda000cd	-0.07812653
7	0x3e9cf32c	0.30654275
8	0xbedf84ed	-0.43656102
9	0xbdae5a3a	-0.08513303
10	0xbecf4aad	-0.4048666
11	0xbe9e827b	-0.30958924
12	0x3ecc2ff4	0.39880335
13	0x3e1e791a	0.15475884
14	0x3e932684	0.28740323
15	0xbe0b600b	-0.13610856
16	0xbf1b5049	-0.6066938
17	0xbebc9379	-0.36831263
18	0xbca21b33	-0.01978836
19	0x3e8887d9	0.26666144
20	0xbd2f9fed	-0.042877126
21	0xbe8e2dc4	-0.2776929
22	0xbf08f968	-0.53505564
23	0x3ee620f1	0.44947007
24	0x3f1a58af	0.6029157
25	0xbed64817	-0.41851875
26	0x3e9a518c	0.3014034
27	0xbe0b21bf	-0.13587092
28	0x3de4fbb0	0.11180818
29	0xbef20d74	-0.4727589
30	0xbe8b6766	-0.27227324
31	0xbdb7ba6e	-0.089711055
32	0x3e72a28a	0.23694816
33	0x3c08bce4	0.008345816
34	0x3e37bba3	0.17942671
35	0x3dc17dd3	0.09447827
36	0x3eae9bad	0.34103146
37	0x3e321d75	0.1739405
38	0x3e038db3	0.12847023
39	0x3d856025	0.06512479
40	0x3e2ea6e1	0.17055847
41	0x3de90e81	0.113797195
42	0xbd828e1d	-0.06374762
43	0x3f0f6232	0.5600921
44	0x3ea2a2f3	0.31764945
45	0x3e6d5a19	0.23178901
46	0x3d96ad19	0.073572345
47	0xbcf3614b	-0.029709479
48	0xbf0660f6	-0.524917
49	0xbe68f508	-0.22749722
50	0x3ebc10c8	0.36731553
51	0x3e455c07	0.19273387
52	0x3e0a0e45	0.13482006
53	0x3e049808	0.1294862
54	0x3e9494cd	0.29019776
55	0x3e33170a	0.17489257
56	0x3e49f3c7	0.197219
57	0xbe20c0ab	-0.15698497
58	0xbf124b42	-0.57146084
59	0x3e1c9d96	0.1529449
60	0x3d66c110	0.056336462
61	0x3dd34082	0.10315038
62	0x3de9bb6b	0.114127
63	0xbdeaedff	-0.114711754
64	0xbeeb3cf3	-0.45944938
65	0x3d560388	0.05224946
66	0xbf1b39e1	-0.6063519
67	0xbee417f5	-0.44549528
68	0xbd7fe850	-0.06247741
69	0xbee75abb	-0.4518641
70	0x3da87cde	0.082269415
71	0xbeb4ceab	-0.35313925
72	0x3e063cca	0.13109127
73	0x3ebab8db	0.3646916
74	0xbe972676	-0.2952153
75	0xbf40c76c	-0.75304294
76	0xbf3a7ee0	-0.72849846
77	0x3f336803	0.70080584
78	0x3f2281d0	0.6347933
79	0x3d1b0ee1	0.037855987
80	0x3e77c587	0.24196444
81	0xbc83ec81	-0.016103985
82	0xbe2ad461	-0.16682579
83	0x3e1c8c2a	0.15287843
84	0xbf913397	-1.1343869
85	0x3ec341f6	0.38136262
86	0x3d0aecf2	0.033917375
87	0x3ddcc7bb	0.10780283
88	0x3f35cf0e	0.71019065
89	0x3eb72410	0.357697
90	0x3e535823	0.2063909
91	0xbcf9d2ad	-0.030495966
92	0x3e8a6f52	0.27038056
93	0x3ebbdb78	0.3669088
94	0x3b7bccc8	0.003842162
95	0x3e9f3e8b	0.31102404
96	0xbe9aefbf	-0.30261037
97	0x3e6027fb	0.21890251
98	0xbf1436c9	-0.57896096
99	0xbe8c8481	-0.27444842
100	0xbeffa2d8	-0.49928927
101	0xbebd1971	-0.36933473
102	0x3ebae6f2	0.36504322
103	0xbe599e10	-0.21251702
104	0x3ee4c3b1	0.4468055
105	0x3eefcb4b	0.46834788
106	0x3ee52168	0.4475205
107	0xbe725102	-0.23663715
108	0xbe1e6403	-0.15467839
109	0x3ea82911	0.3284383
110	0xbef670e7	-0.48133013
111	0x3e9d3e20	0.3071146
112	0x3df30882	0.11866857
113	0x3d60520f	0.054765757
114	0xbde2cae2	-0.11073853
115	0x3e6ff9a7	0.23435079
116	0x3f2abfa1	0.6669865
117	0xbea0eebc	-0.3143214
118	0x3ea1b19a	0.31580812
119	0xbe0731f7	-0.13202654
120	0x3f487d55	0.7831624
121	0xbf32abfd	-0.69793683
122	0xbdedc034	-0.116089255
123	0x3d8da37e	0.06915949
124	0x3f6018e8	0.87538004
125	0x3f2a10c4	0.6643183
126	0x3f1bd529	0.6087213
127	0xbf185aa8	-0.5951333
128	0xbe12d9fe	-0.1434097
129	0x3e70cb3d	0.23515029
130	0xbd097efe	-0.033568375
131	0x3c0ec00c	0.00871278
132	0x3ea165e8	0.3152306
133	0xbcc9686c	-0.024585925
134	0x3e1309fc	0.14359277
135	0x3d4a2402	0.049350746
136	0x3eb0a7e6	0.34503096
137	0xbd297ecd	-0.041380692
138	0xbef4ad1a	-0.47788316
139	0xbdc8a0fb	-0.097963296
140	0xbeb00620	-0.34379673
141	0xbd990b98	-0.074729145
142	0xbe8a6904	-0.27033246
143	0xbe8f6ba2	-0.28011805
144	0x3eb1e7bc	0.34747112
145	0xbe1a8129	-0.15088333
146	0xbe6a389e	-0.2287316
147	0x3e3834e3	0.17988925
148	0xbe6bae70	-0.23015761
149	0x3ee74d6f	0.45176265
150	0xbec482e2	-0.38381106
151	0x3eef93e3	0.46792516
152	0x3e205143	0.15655999
153	0xbd09258c	-0.033483073
154	0x3e10b0f0	0.14129996
155	0x3d03066f	0.031988557
156	0x3e9fa080	0.3117714
157	0xb9a30391	-0.0003109244
158	0xbe7d51db	-0.24738257
159	0xbf0c0672	-0.54697335
160	0xbee3d365	-0.4449722
161	0xbeb6e3e2	-0.35720736
162	0xbea6646e	-0.32498497
163	0x3f25c64d	0.6475571
164	0xbeecaa8f	-0.46223876
165	0xbf200031	-0.6250029
166	0x3e357f16	0.1772426
167	0xbf82240f	-1.0167254
168	0xbe42d930	-0.19028163
169	0xbe57704a	-0.21038929
170	0x3d52619a	0.05136261
171	0x3e18851a	0.14894524
172	0xbf1f457f	-0.6221542
173	0x3dade1a9	0.08490307
174	0x3f6977cf	0.9119844
175	0xbeed69fa	-0.46369916
176	0xbf1e3803	-0.6180422
177	0x3f424a52	0.75894654
178	0xbf3c0dbf	-0.73458475
179	0xbf141ae3	-0.57853526
180	0xbeaf7d14	-0.34275115
181	0xbeac243b	-0.33621392
182	0xbed3aeb2	-0.4134422
183	0xbda7cd7f	-0.08193492
184	0x3ced7568	0.028986648
185	0x3d1abf9d	0.037780393
186	0x3edd85b2	0.43266064
187	0x3ec2e5ea	0.38066036
188	0xbebd3f4b	-0.3696235
189	0x3ca89322	0.02057797
190	0xbe7ddec1	-0.24792005
191	0x3e5d376a	0.2160317
192	0x3d544ea0	0.051832795
193	0x3e608bcf	0.21928333
194	0xbf0bac74	-0.5456002
195	0x3d08bb15	0.03338154
196	0x3efec18f	0.49757048
197	0xbefd89fb	-0.49519333
198	0xbd87a726	-0.06623678
199	0xbe9c0aaa	-0.30476886
200	0x3f0ff610	0.56234837
201	0x3f3b87f9	0.7325435
202	0xbf6472d9	-0.89237744
203	0x3eeb3be6	0.45944136
204	0x3e9dbcd1	0.30808118
205	0xbf22251a	-0.6333786
206	0xbd521760	-0.051291823
207	0xbf8c542c	-1.0963187
208	0xbed27bf9	-0.4111021
209	0x3ec9f91c	0.39447868
210	0xbd24280a	-0.040077247
211	0xbe3f6972	-0.18692568
212	0x3ea96690	0.3308606
213	0x3f2b42a9	0.6689859
214	0x3e9f4ca5	0.31113163
215	0xbe11ff09	-0.14257444
216	0x3a3f91d2	0.00073078007
217	0xbec3accd	-0.38217774
218	0xbf46d332	-0.7766601
219	0xbee163d3	-0.44021472
220	0x3e29ac69	0.16569676
221	0x3e0194ef	0.1265447
222	0xb97d3f90	-0.00024151639
223	0x3d78afcd	0.06071453
224	0xbe8ae127	-0.27124903
225	0xbeab5b09	-0.33467892
226	0xbcbc5a28	-0.022992209
227	0xbd9484a5	-0.072518624
228	0x3ec52569	0.38505104
229	0xbe7d8638	-0.24758232
230	0xbea8762a	-0.32902652
231	0xbe750d47	-0.23930846
232	0xbf265150	-0.64967823
233	0x3e5e847e	0.2173023
234	0x3e6b5a5d	0.2298369
235	0xbe92c394	-0.2866484
236	0x3e106412	0.14100674
237	0xbf6141cc	-0.87991023
238	0x3f19b2b3	0.600383
239	0x3ed215cb	0.41032252
240	0xbedbebdd	-0.42953387
241	0x3ed38dda	0.41319162
242	0xbd0cd59e	-0.03438341
243	0x3f39ee7a	0.7262951
244	0x3ee27b4a	0.44234687
245	0xbe0386a7	-0.12844335
246	0xbd0d8779	-0.034553025
247	0xbeb362d5	-0.3503634
248	0xbe1aefea	-0.15130582
249	0xbe9a59ff	-0.30146787
250	0xbec2c949	-0.38044193
251	0x3e986b96	0.29769582
252	0xbee2224d	-0.44166794
253	0x3cfaf303	0.030633455
254	0xbdc28f1d	-0.09499953
255	0xbed57c4c	-0.41696393

ln1.bias f4 [100]
0	0xbf8754a3	-1.0572704
1	0xbf8aca9b	-1.084308
2	0xbf2c8c3c	-0.6740148
3	0xbf6f8a65	-0.9357055
4	0xbfa930dc	-1.3218036
5	0xbf6f8b4d	-0.9357193
6	0xbfaaa622	-1.333195
7	0xbf14cfd0	-0.58129597
8	0xbeae9938	-0.34101272
9	0xbf95e4c8	-1.1710443
10	0xbf5d8842	-0.8653604
11	0xbf1221a2	-0.5708257
12	0xbf25ce07	-0.647675
13	0xbf827c00	-1.0194092
14	0xbfa13182	-1.2593234
15	0xbf2b0505	-0.66804534
16	0xbf420b8b	-0.75798863
17	0xbf904b7a	-1.1273034
18	0xbf8d2cb8	-1.1029272
19	0xbf7fbc38	-0.99896574
20	0xbeb6d4c1	-0.35709193
21	0xbf741a9c	-0.953531
22	0xbf773a60	-0.9657345
23	0xbf6f10a3	-0.9338476
24	0xbf1168d2	-0.5680057
25	0xbf481c68	-0.78168344
26	0xbf8f9a97	-1.1219052
27	0xbf21fbff	-0.6327514
28	0xbf6871ca	-0.9079863
29	0xbf80e0e8	-1.0068636
30	0xbfaef962	-1.3669856
31	0xbf401bbc	-0.7504232
32	0xbf0b07d2	-0.5430881
33	0xbf4b1c10	-0.79339695
34	0xbeba4bb5	-0.36385885
35	0xbf6817bb	-0.9066121
36	0xbf6dca9f	-0.928873
37	0xbf511b92	-0.81682694
38	0xbf4468a5	-0.76722175
39	0xbf5eb24f	-0.8699083
40	0xbf6da992	-0.9283687
41	0xbf076ad1	-0.52897364
42	0xbf9c33ac	-1.2203269
43	0xbf8a0dbd	-1.0785443
44	0xbf846fbd	-1.03466
45	0xbf49d1ab	-0.7883555
46	0xbf82c671	-1.021681
47	0xbf6231b1	-0.88357073
48	0xbf8acde0	-1.0844078
49	0xbf99c6be	-1.2013776
50	0xbf4994e5	-0.7874282
51	0xbf6021aa	-0.8755137
52	0xbf3b8ee8	-0.7326493
53	0xbf5c251f	-0.8599414
54	0xbf33b50f	-0.7019815
55	0xbf773507	-0.9656529
56	0xbf1c6918	-0.6109786
57	0xbf25a3ee	-0.6470326
58	0xbf471d80	-0.7777939
59	0xbf2a669d	-0.66562825
60	0xbf9b73c5	-1.2144705
61	0xbf33e584	-0.7027209
62	0xbf7daa84	-0.9908831
63	0xbefab693	-0.48967418
64	0xbf8c0c3f	-1.0941237
65	0xbfb09cf8	-1.3797903
66	0xbf698ed6	-0.91233575
67	0xbf48a21a	-0.7837235
68	0xbf857d8e	-1.0428941
69	0xbf8c15b9	-1.0944129
70	0xbf11d697	-0.56968063
71	0xbf4cf80e	-0.80066
72	0xbf4b4ad0	-0.7941103
73	0xbf57ecf1	-0.8434592
74	0xbf782996	-0.96938455
75	0xbf9740c1	-1.1816636
76	0xbf4d4f8b	-0.801995
77	0xbf80c121	-1.0058938
78	0xbfaa21be	-1.3291547
79	0xbeff2ae4	-0.4983741
80	0x3e0af54b	0.13570134
81	0xbf4b7269	-0.7947145
82	0xbf483701	-0.7820893
83	0xbf4ad0b6	-0.7922472
84	0xbfb9d16e	-1.4517038
85	0xbf0c9fd2	-0.54931366
86	0xbf5e8074	-0.86914754
87	0xbf8d32c4	-1.1031117
88	0xbf801d07	-1.0008858
89	0xbf7be0c0	-0.98389816
90	0xbf5da2e6	-0.8657669
91	0xbf951d94	-1.1649652
92	0xbf9b6427	-1.2139939
93	0xbf10cbef	-0.5656118
94	0xbfa4d6ef	-1.2878093
95	0xbfa2175c	-1.2663379
96	0xbf41cee6	-0.75706327
97	0xbf901da9	-1.1259052
98	0xbf969fc0	-1.1767502
99	0xbf5604b1	-0.8360091

mu.weight f4 [1, 100]
0	0x3e48ca92	0.19608524
1	0xbe46558d	-0.19368573
2	0xbd1bbdc6	-0.03802278
3	0x3dd5dcfa	0.104425386
4	0x3dc80f99	0.097686
5	0x3d7b525a	0.061357833
6	0xbf17849c	-0.5918672
7	0xbe4a4100	-0.19751358
8	0x3e33d122	0.17560247
9	0x3e7a7d8a	0.24461952
10	0x3d9e1d74	0.077204615
11	0xbdbd1112	-0.092317715
12	0x3e8351c8	0.25648332
13	0x3e0dec7a	0.1385974
14	0x3ed57fa5	0.41698948
15	0xbdc01b52	-0.09380211
16	0xbe127cb7	-0.14305387
17	0xbf1cbe98	-0.61228323
18	0xbda39e2b	-0.079891525
19	0xba122f7e	-0.0005576535
20	0xbec85480	-0.39126968
21	0x3dd35b9f	0.1032021
22	0xbca2fc8d	-0.019895816
23	0xbe776288	-0.2415868
24	0xbdd8a55d	-0.105784155
25	0xbec7cc9a	-0.39023286
26	0xbf0b17ab	-0.5433299
27	0x3d2d7cf9	0.04235551
28	0x3dfe50e4	0.124177724
29	0x3de2b0b1	0.110688575
30	0x3e893691	0.26799443
31	0x3ddc2306	0.10748868
32	0xbdb3cb55	-0.08779017
33	0x3e193281	0.14960672
34	0x3e98d6e2	0.29851443
35	0x3e5d3e96	0.21605906
36	0xbe12a432	-0.14320448
37	0x3d70ea32	0.058817096
38	0x3c90c2ea	0.017671067
39	0x3e482f43	0.19549279
40	0x3cac850e	0.02105954
41	0xbe1bfd4c	-0.15233344
42	0xbf035858	-0.51306677
43	0x3e1a80eb	0.15088241
44	0xbe983661	-0.29728988
45	0xbcc025e2	-0.023455564
46	0xbde5dc40	-0.1122365
47	0x3e61613e	0.22009751
48	0xbf03f08b	-0.51538914
49	0xbf03b004	-0.51440454
50	0x3df822ef	0.12116038
51	0x3d246c97	0.04014262
52	0x3de4dbe7	0.111747555
53	0x3e051c3b	0.1299905
54	0x3e389600	0.1802597
55	0xbec66618	-0.38749766
56	0xbdee4994	-0.11635128
57	0xbd0b1f36	-0.033965312
58	0xbdfbf3f8	-0.12302393
59	0xbbb83f85	-0.0056228065
60	0xbdf43ef9	-0.119260736
61	0xbd463350	-0.04838878
62	0xbe8ccd75	-0.275005
63	0xbea5cb80	-0.3238182
64	0x3e8e7dfa	0.27830487
65	0xbbd739e3	-0.00656818
66	0x3dfa0343	0.122076534
67	0x3d992105	0.07477001
68	0xbd3ecc86	-0.046581767
69	0xbcd96d01	-0.026541235
70	0x3c99d03d	0.018776054
71	0xbd09e882	-0.033669002
72	0xbe388c5f	-0.18022297
73	0xbd9f734c	-0.07785663
74	0x3e5782e8	0.2104603
75	0xbec0e5da	-0.37675363
76	0xbe094b18	-0.13407552
77	0xbd3e66bd	-0.046484698
78	0x3c60a942	0.013712229
79	0x3e421511	0.18953349
80	0x3f2a194f	0.6644487
81	0xbd32b5d0	-0.04363042
82	0xbd42e5a6	-0.04758229
83	0xbecf62c1	-0.4050503
84	0xbf4f3c22	-0.8095113
85	0xbda22cc3	-0.07918694
86	0xba689c5a	-0.0008873396
87	0xbe9784d6	-0.29593533
88	0x3eaa9124	0.33313859
89	0xbd300edd	-0.042982925
90	0x3d811ec9	0.063047
91	0xbe072219	-0.13196601
92	0xbe96dd33	-0.29465637
93	0xbe591630	-0.2119987
94	0xbf327dd6	-0.6972326
95	0xbe3e2416	-0.18568453
96	0xbe0ad45d	-0.13557573
97	0xbeed8241	-0.46388438
98	0xbe976274	-0.295673
99	0x3e1e275d	0.15444703

sigma.weight f4 [1, 100]
0	0xbcb74bec	-0.02237507
1	0xbd3b1cc0	-0.045681715
2	0x3d9d6e35	0.07687036
3	0xbc9977c0	-0.018733859
4	0xbc019ed0	-0.007911399
5	0x3dbe378d	0.09287939
6	0x3b812220	0.0039408356
7	0x3c5c32f0	0.013439879
8	0xbda6e225	-0.081486024
9	0x3cdf0724	0.027225085
10	0x3d78e9da	0.060769893
11	0x3d3fc302	0.046816833
12	0x3d40d7a2	0.047080643
13	0xbdbf8432	-0.09351386
14	0x3d43cfa2	0.047805436
15	0xbd962f42	-0.073332325
16	0xbd1e624a	-0.038667955
17	0x3dbe1615	0.092815556
18	0xbd75e353	-0.060031246
19	0x3b4d95a0	0.00313697
20	0x3dc011b5	0.09378377
21	0xbbd70260	-0.0065615624
22	0xbc579a58	-0.013159357
23	0x3d9a6941	0.07539607
24	0x3d1d86ca	0.038458623
25	0xbd46cfba	-0.048537947
26	0x3dc07af5	0.09398452
27	0x3da9e149	0.08294923
28	0xbd8ea6c6	-0.06965403
29	0x3d5a10c6	0.053238653
30	0xbda94a46	-0.0826612
31	0xbc635ad8	-0.013876639
32	0xbd1a673d	-0.037696112
33	0xbbe9b9a0	-0.007132724
34	0x3c6c6510	0.014428392
35	0xbd2cbe3d	-0.042173613
36	0xbc888980	-0.016667128
37	0xbcdd740c	-0.027032875
38	0x3da83c45	0.082146205
39	0x3d3b0c7e	0.04566621
40	0x3c42f118	0.011898302
41	0x3cf2568c	0.029582284
42	0xbdccba87	-0.09996515
43	0xbd3f1c90	-0.0466581
44	0x3d9285fb	0.07154461
45	0x3d93546d	0.07193837
46	0xbdbcb990	-0.09215081
47	0xbba6ad20	-0.005086556
48	0x3d2233b2	0.03960008
49	0x3d83abeb	0.06429275
50	0xbc65bf80	-0.014022708
51	0x3dc9eac1	0.09859229
52	0xbbab2350	-0.0052227154
53	0xbda06f2b	-0.078337036
54	0xbd4aa2f0	-0.049471796
55	0x3ccf21fc	0.02528476
56	0x3d4395b2	0.047750182
57	0x3db995d9	0.09061784
58	0x3b8d7760	0.004317209
59	0xbda699f8	-0.08134836
60	0x3c4673f0	0.012112603
61	0x3d7ee4d2	0.06222994
62	0x3d5eb0ca	0.054367818
63	0x3ca34014	0.019928016
64	0x3dc9a1e1	0.09845329
65	0x3d9f0675	0.077649035
66	0x3d551962	0.05202616
67	0xbc3533b0	-0.011059687
68	0xbc3e6f28	-0.011623181
69	0x3d9a4c4b	0.07534083
70	0x3cfcc244	0.030854352
71	0x3d7a1df2	0.061063714
72	0xbd6e5017	-0.05818185
73	0x3c39b2d0	0.011334136
74	0xbd8edc2d	-0.06975589
75	0xbd920516	-0.07129876
76	0xbd3d481a	-0.04621134
77	0x3d92fc7f	0.07177066
78	0x3cb7d0d4	0.022438444
79	0xbdbf12fb	-0.09329792
80	0x3d42960e	0.047506385
81	0xbbb8d0e0	-0.005640134
82	0x3c1cb240	0.0095639825
83	0xbd4ef72a	-0.050528683
84	0xbdaef7cb	-0.085433565
85	0x3dac991f	0.08427643
86	0x3d7e0572	0.06201691
87	0xbcdb9bf8	-0.02680777
88	0xbcdd652c	-0.027025782
89	0x3d92f0a1	0.071748026
90	0xbc8a2674	-0.016864039
91	0xbd9509c8	-0.07277256
92	0xbd097214	-0.03355606
93	0xbd950b70	-0.07277572
94	0xbc9511f8	-0.018197045
95	0xbd1e683a	-0.038673617
96	0x3d94f3af	0.072730415
97	0xbda520b6	-0.0806288
98	0xbd2cb330	-0.042163074
99	0x3d9b9507	0.07596784

ln1.weight f4 [100, 10]
0	0x3ce05293	0.027383124
1	0xbdf6972d	-0.12040553
2	0xbeb003de	-0.3437795
3	0x3ecff14f	0.4061379
4	0x3f01026a	0.5039431
5	0x3f1133cf	0.5671968
6	0xbda000cd	-0.07812653
7	0x3e9cf32c	0.30654275
8	0xbedf84ed	-0.43656102
9	0xbdae5a3a	-0.08513303
10	0xbecf4aad	-0.4048666
11	0xbe9e827b	-0.30958924
12	0x3ecc2ff4	0.39880335
13	0x3e1e791a	0.15475884
14	0x3e932684	0.28740323
15	0xbe0b600b	-0.13610856
16	0xbf1b5049	-0.6066938
17	0xbebc9379	-0.36831263
18	0xbca21b33	-0.01978836
19	0x3e8887d9	0.26666144
20	0xbd2f9fed	-0.042877126
21	0xbe8e2dc4	-0.2776929
22	0xbf08f968	-0.53505564
23	0x3ee620f1	0.44947007
24	0x3f1a58af	0.6029157
25	0xbed64817	-0.41851875
26	0x3e9a518c	0.3014034
27	0xbe0b21bf	-0.13587092
28	0x3de4fbb0	0.11180818
29	0xbef20d74	-0.4727589
30	0xbe8b6766	-0.27227324
31	0xbdb7ba6e	-0.089711055
32	0x3e72a28a	0.23694816
33	0x3c08bce4	0.008345816
34	0x3e37bba3	0.17942671
35	0x3dc17dd3	0.09447827
36	0x3eae9bad	0.34103146
37	0x3e321d75	0.1739405
38	0x3e038db3	0.12847023
39	0x3d856025	0.06512479
40	0x3e2ea6e1	0.17055847
41	0x3de90e81	0.113797195
42	0xbd828e1d	-0.06374762
43	0x3f0f6232	0.5600921
44	0x3ea2a2f3	0.31764945
45	0x3e6d5a19	0.23178901
46	0x3d96ad19	0.073572345
47	0xbcf3614b	-0.029709479
48	0xbf0660f6	-0.524917
49	0xbe68f508	-0.22749722
50	0x3ebc10c8	0.36731553
51	0x3e455c07	0.19273387
52	0x3e0a0e45	0.13482006
53	0x3e049808	0.1294862
54	0x3e9494cd	0.29019776
55	0x3e33170a	0.17489257
56	0x3e49f3c7	0.197219
57	0xbe20c0ab	-0.15698497
58	0xbf124b42	-0.57146084
59	0x3e1c9d96	0.1529449
60	0x3d66c110	0.056336462
61	0x3dd34082	0.10315038
62	0x3de9bb6b	0.114127
63	0xbdeaedff	-0.114711754
64	0xbeeb3cf3	-0.45944938
65	0x3d560388	0.05224946
66	0xbf1b39e1	-0.6063519
67	0xbee417f5	-0.44549528
68	0xbd7fe850	-0.06247741
69	0xbee75abb	-0.4518641
70	0x3da87cde	0.082269415
71	0xbeb4ceab	-0.35313925
72	0x3e063cca	0.13109127
73	0x3ebab8db	0.3646916
74	0xbe972676	-0.2952153
75	0xbf40c76c	-0.75304294
76	0xbf3a7ee0	-0.72849846
77	0x3f336803	0.70080584
78	0x3f2281d0	0.6347933
79	0x3d1b0ee1	0.037855987
80	0x3e77c587	0.24196444
81	0xbc83ec81	-0.016103985
82	0xbe2ad461	-0.16682579
83	0x3e1c8c2a	0.15287843
84	0xbf913397	-1.1343869
85	0x3ec341f6	0.38136262
86	0x3d0aecf2	0.033917375
87	0x3ddcc7bb	0.10780283
88	0x3f35cf0e	0.71019065
89	0x3eb72410	0.357697
90	0x3e535823	0.2063909
91	0xbcf9d2ad	-0.030495966
92	0x3e8a6f52	0.27038056
93	0x3ebbdb78	0.3669088
94	0x3b7bccc8	0.003842162
95	0x3e9f3e8b	0.31102404
96	0xbe9aefbf	-0.30261037
97	0x3e6027fb	0.21890251
98	0xbf1436c9	-0.57896096
99	0xbe8c8481	-0.27444842
100	0xbeffa2d8	-0.49928927
101	0xbebd1971	-0.36933473
102	0x3ebae6f2	0.36504322
103	0xbe599e10	-0.21251702
104	0x3ee4c3b1	0.4468055
105	0x3eefcb4b	0.46834788
106	0x3ee52168	0.4475205
107	0xbe725102	-0.23663715
108	0xbe1e6403	-0.15467839
109	0x3ea82911	0.3284383
110	0xbef670e7	-0.48133013
111	0x3e9d3e20	0.3071146
112	0x3df30882	0.11866857
113	0x3d60520f	0.054765757
114	0xbde2cae2	-0.11073853
115	0x3e6ff9a7	0.23435079
116	0x3f2abfa1	0.6669865
117	0xbea0eebc	-0.3143214
118	0x3ea1b19a	0.31580812
119	0xbe0731f7	-0.13202654
120	0x3f487d55	0.7831624
121	0xbf32abfd	-0.69793683
122	0xbdedc034	-0.116089255
123	0x3d8da37e	0.06915949
124	0x3f6018e8	0.87538004
125	0x3f2a10c4	0.6643183
126	0x3f1bd529	0.6087213
127	0xbf185aa8	-0.5951333
128	0xbe12d9fe	-0.1434097
129	0x3e70cb3d	0.23515029
130	0xbd097efe	-0.033568375
131	0x3c0ec00c	0.00871278
132	0x3ea165e8	0.3152306
133	0xbcc9686c	-0.024585925
134	0x3e1309fc	0.14359277
135	0x3d4a2402	0.049350746
136	0x3eb0a7e6	0.34503096
137	0xbd297ecd	-0.041380692
138	0xbef4ad1a	-0.47788316
139	0xbdc8a0fb	-0.097963296
140	0xbeb00620	-0.34379673
141	0xbd990b98	-0.074729145
142	0xbe8a6904	-0.27033246
143	0xbe8f6ba2	-0.28011805
144	0x3eb1e7bc	0.34747112
145	0xbe1a8129	-0.15088333
146	0xbe6a389e	-0.2287316
147	0x3e3834e3	0.17988925
148	0xbe6bae70	-0.23015761
149	0x3ee74d6f	0.45176265
150	0xbec482e2	-0.38381106
151	0x3eef93e3	0.46792516
152	0x3e205143	0.15655999
153	0xbd09258c	-0.033483073
154	0x3e10b0f0	0.14129996
155	0x3d03066f	0.031988557
156	0x3e9fa080	0.3117714
157	0xb9a30391	-0.0003109244
158	0xbe7d51db	-0.24738257
159	0xbf0c0672	-0.54697335
160	0xbee3d365	-0.4449722
161	0xbeb6e3e2	-0.35720736
162	0xbea6646e	-0.32498497
163	0x3f25c64d	0.6475571
164	0xbeecaa8f	-0.46223876
165	0xbf200031	-0.6250029
166	0x3e357f16	0.1772426
167	0xbf82240f	-1.0167254
168	0xbe42d930	-0.19028163
169	0xbe57704a	-0.21038929
170	0x3d52619a	0.05136261
171	0x3e18851a	0.14894524
172	0xbf1f457f	-0.6221542
173	0x3dade1a9	0.08490307
174	0x3f6977cf	0.9119844
175	0xbeed69fa	-0.46369916
176	0xbf1e3803	-0.6180422
177	0x3f424a52	0.75894654
178	0xbf3c0dbf	-0.73458475
179	0xbf141ae3	-0.57853526
180	0xbeaf7d14	-0.34275115
181	0xbeac243b	-0.33621392
182	0xbed3aeb2	-0.4134422
183	0xbda7cd7f	-0.08193492
184	0x3ced7568	0.028986648
185	0x3d1abf9d	0.037780393
186	0x3edd85b2	0.43266064
187	0x3ec2e5ea	0.38066036
188	0xbebd3f4b	-0.3696235
189	0x3ca89322	0.02057797
190	0xbe7ddec1	-0.24792005
191	0x3e5d376a	0.2160317
192	0x3d544ea0	0.051832795
193	0x3e608bcf	0.21928333
194	0xbf0bac74	-0.5456002
195	0x3d08bb15	0.03338154
196	0x3efec18f	0.49757048
197	0xbefd89fb	-0.49519333
198	0xbd87a726	-0.06623678
199	0xbe9c0aaa	-0.30476886
200	0x3f0ff610	0.56234837
201	0x3f3b87f9	0.7325435
202	0xbf6472d9	-0.89237744
203	0x3eeb3be6	0.45944136
204	0x3e9dbcd1	0.30808118
205	0xbf22251a	-0.6333786
206	0xbd521760	-0.051291823
207	0xbf8c542c	-1.0963187
208	0xbed27bf9	-0.4111021
209	0x3ec9f91c	0.39447868
210	0xbd24280a	-0.040077247
211	0xbe3f6972	-0.18692568
212	0x3ea96690	0.3308606
213	0x3f2b42a9	0.6689859
214	0x3e9f4ca5	0.31113163
215	0xbe11ff09	-0.14257444
216	0x3a3f91d2	0.00073078007
217	0xbec3accd	-0.38217774
218	0xbf46d332	-0.7766601
219	0xbee163d3	-0.44021472
220	0x3e29ac69	0.16569676
221	0x3e0194ef	0.1265447
222	0xb97d3f90	-0.00024151639
223	0x3d78afcd	0.06071453
224	0xbe8ae127	-0.27124903
225	0xbeab5b09	-0.33467892
226	0xbcbc5a28	-0.022992209
227	0xbd9484a5	-0.072518624
228	0x3ec52569	0.38505104
229	0xbe7d8638	-0.24758232
230	0xbea8762a	-0.32902652
231	0xbe750d47	-0.23930846
232	0xbf265150	-0.64967823
233	0x3e5e847e	0.2173023
234	0x3e6b5a5d	0.2298369
235	0xbe92c394	-0.2866484
236	0x3e106412	0.14100674
237	0xbf6141cc	-0.87991023
238	0x3f19b2b3	0.600383
239	0x3ed215cb	0.41032252
240	0xbedbebdd	-0.42953387
241	0x3ed38dda	0.41319162
242	0xbd0cd59e	-0.03438341
243	0x3f39ee7a	0.7262951
244	0x3ee27b4a	0.44234687
245	0xbe0386a7	-0.12844335
246	0xbd0d8779	-0.034553025
247	0xbeb362d5	-0.3503634
248	0xbe1aefea	-0.15130582
249	0xbe9a59ff	-0.30146787
250	0xbec2c949	-0.38044193
251	0x3e986b96	0.29769582
252	0xbee2224d	-0.44166794
253	0x3cfaf303	0.030633455
254	0xbdc28f1d	-0.09499953
255	0xbed57c4c	-0.41696393

ln1.bias f4 [100]
0	0xbf8754a3	-1.0572704
1	0xbf8aca9b	-1.084308
2	0xbf2c8c3c	-0.6740148
3	0xbf6f8a65	-0.9357055
4	0xbfa930dc	-1.3218036
5	0xbf6f8b4d	-0.9357193
6	0xbfaaa622	-1.333195
7	0xbf14cfd0	-0.58129597
8	0xbeae9938	-0.34101272
9	0xbf95e4c8	-1.1710443
10	0xbf5d8842	-0.8653604
11	0xbf1221a2	-0.5708257
12	0xbf25ce07	-0.647675
13	0xbf827c00	-1.0194092
14	0xbfa13182	-1.2593234
15	0xbf2b0505	-0.66804534
16	0xbf420b8b	-0.75798863
17	0xbf904b7a	-1.1273034
18	0xbf8d2cb8	-1.1029272
19	0xbf7fbc38	-0.99896574
20	0xbeb6d4c1	-0.35709193
21	0xbf741a9c	-0.953531
22	0xbf773a60	-0.9657345
23	0xbf6f10a3	-0.9338476
24	0xbf1168d2	-0.5680057
25	0xbf481c68	-0.78168344
26	0xbf8f9a97	-1.1219052
27	0xbf21fbff	-0.6327514
28	0xbf6871ca	-0.9079863
29	0xbf80e0e8	-1.0068636
30	0xbfaef962	-1.3669856
31	0xbf401bbc	-0.7504232
32	0xbf0b07d2	-0.5430881
33	0xbf4b1c10	-0.79339695
34	0xbeba4bb5	-0.36385885
35	0xbf6817bb	-0.9066121
36	0xbf6dca9f	-0.928873
37	0xbf511b92	-0.81682694
38	0xbf4468a5	-0.76722175
39	0xbf5eb24f	-0.8699083
40	0xbf6da992	-0.9283687
41	0xbf076ad1	-0.52897364
42	0xbf9c33ac	-1.2203269
43	0xbf8a0dbd	-1.0785443
44	0xbf846fbd	-1.03466
45	0xbf49d1ab	-0.7883555
46	0xbf82c671	-1.021681
47	0xbf6231b1	-0.88357073
48	0xbf8acde0	-1.0844078
49	0xbf99c6be	-1.2013776
50	0xbf4994e5	-0.7874282
51	0xbf6021aa	-0.8755137
52	0xbf3b8ee8	-0.7326493
53	0xbf5c251f	-0.8599414
54	0xbf33b50f	-0.7019815
55	0xbf773507	-0.9656529
56	0xbf1c6918	-0.6109786
57	0xbf25a3ee	-0.6470326
58	0xbf471d80	-0.7777939
59	0xbf2a669d	-0.66562825
60	0xbf9b73c5	-1.2144705
61	0xbf33e584	-0.7027209
62	0xbf7daa84	-0.9908831
63	0xbefab693	-0.48967418
64	0xbf8c0c3f	-1.0941237
65	0xbfb09cf8	-1.3797903
66	0xbf698ed6	-0.91233575
67	0xbf48a21a	-0.7837235
68	0xbf857d8e	-1.0428941
69	0xbf8c15b9	-1.0944129
70	0xbf11d697	-0.56968063
71	0xbf4cf80e	-0.80066
72	0xbf4b4ad0	-0.7941103
73	0xbf57ecf1	-0.8434592
74	0xbf782996	-0.96938455
75	0xbf9740c1	-1.1816636
76	0xbf4d4f8b	-0.801995
77	0xbf80c121	-1.0058938
78	0xbfaa21be	-1.3291547
79	0xbeff2ae4	-0.4983741
80	0x3e0af54b	0.13570134
81	0xbf4b7269	-0.7947145
82	0xbf483701	-0.7820893
83	0xbf4ad0b6	-0.7922472
84	0xbfb9d16e	-1.4517038
85	0xbf0c9fd2	-0.54931366
86	0xbf5e8074	-0.86914754
87	0xbf8d32c4	-1.1031117
88	0xbf801d07	-1.0008858
89	0xbf7be0c0	-0.98389816
90	0xbf5da2e6	-0.8657669
91	0xbf951d94	-1.1649652
92	0xbf9b6427	-1.2139939
93	0xbf10cbef	-0.5656118
94	0xbfa4d6ef	-1.2878093
95	0xbfa2175c	-1.2663379
96	0xbf41cee6	-0.75706327
97	0xbf901da9	-1.1259052
98	0xbf969fc0	-1.1767502
99	0xbf5604b1	-0.8360091

mu.weight f4 [1, 100]
0	0x3e48ca92	0.19608524
1	0xbe46558d	-0.19368573
2	0xbd1bbdc6	-0.03802278
3	0x3dd5dcfa	0.104425386
4	0x3dc80f99	0.097686
5	0x3d7b525a	0.061357833
6	0xbf17849c	-0.5918672
7	0xbe4a4100	-0.19751358
8	0x3e33d122	0.17560247
9	0x3e7a7d8a	0.24461952
10	0x3d9e1d74	0.077204615
11	0xbdbd1112	-0.092317715
12	0x3e8351c8	0.25648332
13	0x3e0dec7a	0.1385974
14	0x3ed57fa5	0.41698948
15	0xbdc01b52	-0.09380211
16	0xbe127cb7	-0.14305387
17	0xbf1cbe98	-0.61228323
18	0xbda39e2b	-0.079891525
19	0xba122f7e	-0.0005576535
20	0xbec85480	-0.39126968
21	0x3dd35b9f	0.1032021
22	0xbca2fc8d	-0.019895816
23	0xbe776288	-0.2415868
24	0xbdd8a55d	-0.105784155
25	0xbec7cc9a	-0.39023286
26	0xbf0b17ab	-0.5433299
27	0x3d2d7cf9	0.04235551
28	0x3dfe50e4	0.124177724
29	0x3de2b0b1	0.110688575
30	0x3e893691	0.26799443
31	0x3ddc2306	0.10748868
32	0xbdb3cb55	-0.08779017
33	0x3e193281	0.14960672
34	0x3e98d6e2	0.29851443
35	0x3e5d3e96	0.21605906
36	0xbe12a432	-0.14320448
37	0x3d70ea32	0.058817096
38	0x3c90c2ea	0.017671067
39	0x3e482f43	0.19549279
40	0x3cac850e	0.02105954
41	0xbe1bfd4c	-0.15233344
42	0xbf035858	-0.51306677
43	0x3e1a80eb	0.15088241
44	0xbe983661	-0.29728988
45	0xbcc025e2	-0.023455564
46	0xbde5dc40	-0.1122365
47	0x3e61613e	0.22009751
48	0xbf03f08b	-0.51538914
49	0xbf03b004	-0.51440454
50	0x3df822ef	0.12116038
51	0x3d246c97	0.04014262
52	0x3de4dbe7	0.111747555
53	0x3e051c3b	0.1299905
54	0x3e389600	0.1802597
55	0xbec66618	-0.38749766
56	0xbdee4994	-0.11635128
57	0xbd0b1f36	-0.033965312
58	0xbdfbf3f8	-0.12302393
59	0xbbb83f85	-0.0056228065
60	0xbdf43ef9	-0.119260736
61	0xbd463350	-0.04838878
62	0xbe8ccd75	-0.275005
63	0xbea5cb80	-0.3238182
64	0x3e8e7dfa	0.27830487
65	0xbbd739e3	-0.00656818
66	0x3dfa0343	0.122076534
67	0x3d992105	0.07477001
68	0xbd3ecc86	-0.046581767
69	0xbcd96d01	-0.026541235
70	0x3c99d03d	0.018776054
71	0xbd09e882	-0.033669002
72	0xbe388c5f	-0.18022297
73	0xbd9f734c	-0.07785663
74	0x3e5782e8	0.2104603
75	0xbec0e5da	-0.37675363
76	0xbe094b18	-0.13407552
77	0xbd3e66bd	-0.046484698
78	0x3c60a942	0.013712229
79	0x3e421511	0.18953349
80	0x3f2a194f	0.6644487
81	0xbd32b5d0	-0.04363042
82	0xbd42e5a6	-0.04758229
83	0xbecf62c1	-0.4050503
84	0xbf4f3c22	-0.8095113
85	0xbda22cc3	-0.07918694
86	0xba689c5a	-0.0008873396
87	0xbe9784d6	-0.29593533
88	0x3eaa9124	0.33313859
89	0xbd300edd	-0.042982925
90	0x3d811ec9	0.063047
91	0xbe072219	-0.13196601
92	0xbe96dd33	-0.29465637
93	0xbe591630	-0.2119987
94	0xbf327dd6	-0.6972326
95	0xbe3e2416	-0.18568453
96	0xbe0ad45d	-0.13557573
97	0xbeed8241	-0.46388438
98	0xbe976274	-0.295673
99	0x3e1e275d	0.15444703

sigma.weight f4 [1, 100]
0	0xbcb74bec	-0.02237507
1	0xbd3b1cc0	-0.045681715
2	0x3d9d6e35	0.07687036
3	0xbc9977c0	-0.018733859
4	0xbc019ed0	-0.007911399
5	0x3dbe378d	0.09287939
6	0x3b812220	0.0039408356
7	0x3c5c32f0	0.013439879
8	0xbda6e225	-0.081486024
9	0x3cdf0724	0.027225085
10	0x3d78e9da	0.060769893
11	0x3d3fc302	0.046816833
12	0x3d40d7a2	0.047080643
13	0xbdbf8432	-0.09351386
14	0x3d43cfa2	0.047805436
15	0xbd962f42	-0.073332325
16	0xbd1e624a	-0.038667955
17	0x3dbe1615	0.092815556
18	0xbd75e353	-0.060031246
19	0x3b4d95a0	0.00313697
20	0x3dc011b5	0.09378377
21	0xbbd70260	-0.0065615624
22	0xbc579a58	-0.013159357
23	0x3d9a6941	0.07539607
24	0x3d1d86ca	0.038458623
25	0xbd46cfba	-0.048537947
26	0x3dc07af5	0.09398452
27	0x3da9e149	0.08294923
28	0xbd8ea6c6	-0.06965403
29	0x3d5a10c6	0.053238653
30	0xbda94a46	-0.0826612
31	0xbc635ad8	-0.013876639
32	0xbd1a673d	-0.037696112
33	0xbbe9b9a0	-0.007132724
34	0x3c6c6510	0.014428392
35	0xbd2cbe3d	-0.042173613
36	0xbc888980	-0.016667128
37	0xbcdd740c	-0.027032875
38	0x3da83c45	0.082146205
39	0x3d3b0c7e	0.04566621
40	0x3c42f118	0.011898302
41	0x3cf2568c	0.029582284
42	0xbdccba87	-0.09996515
43	0xbd3f1c90	-0.0466581
44	0x3d9285fb	0.07154461
45	0x3d93546d	0.07193837
46	0xbdbcb990	-0.09215081
47	0xbba6ad20	-0.005086556
48	0x3d2233b2	0.03960008
49	0x3d83abeb	0.06429275
50	0xbc65bf80	-0.014022708
51	0x3dc9eac1	0.09859229
52	0xbbab2350	-0.0052227154
53	0xbda06f2b	-0.078337036
54	0xbd4aa2f0	-0.049471796
55	0x3ccf21fc	0.02528476
56	0x3d4395b2	0.047750182
57	0x3db995d9	0.09061784
58	0x3b8d7760	0.004317209
59	0xbda699f8	-0.08134836
60	0x3c4673f0	0.012112603
61	0x3d7ee4d2	0.06222994
62	0x3d5eb0ca	0.054367818
63	0x3ca34014	0.019928016
64	0x3dc9a1e1	0.09845329
65	0x3d9f0675	0.077649035
66	0x3d551962	0.05202616
67	0xbc3533b0	-0.011059687
68	0xbc3e6f28	-0.011623181
69	0x3d9a4c4b	0.07534083
70	0x3cfcc244	0.030854352
71	0x3d7a1df2	0.061063714
72	0xbd6e5017	-0.05818185
73	0x3c39b2d0	0.011334136
74	0xbd8edc2d	-0.06975589
75	0xbd920516	-0.07129876
76	0xbd3d481a	-0.04621134
77	0x3d92fc7f	0.07177066
78	0x3cb7d0d4	0.022438444
79	0xbdbf12fb	-0.09329792
80	0x3d42960e	0.047506385
81	0xbbb8d0e0	-0.005640134
82	0x3c1cb240	0.0095639825
83	0xbd4ef72a	-0.050528683
84	0xbdaef7cb	-0.085433565
85	0x3dac991f	0.08427643
86	0x3d7e0572	0.06201691
87	0xbcdb9bf8	-0.02680777
88	0xbcdd652c	-0.027025782
89	0x3d92f0a1	0.071748026
90	0xbc8a2674	-0.016864039
91	0xbd9509c8	-0.07277256
92	0xbd097214	-0.03355606
93	0xbd950b70	-0.07277572
94	0xbc9511f8	-0.018197045
95	0xbd1e683a	-0.038673617
96	0x3d94f3af	0.072730415
97	0xbda520b6	-0.0806288
98	0xbd2cb330	-0.042163074
99	0x3d9b9507	0.07596784
