tmp/checkpoint.pt (torch_old, 10489 bytes, 3 tensors)

weight f4 [100, 10]
000000 09 c1 65 be fa 60 e5 bd 05 6e 1f bf f6 c7 cc 3e
       -0.22436918 -0.112001374 -0.6227725 0.39996308
000010 ec db 85 3e e2 ac 83 be a8 4b 08 3e ea 69 95 3e
       0.2614435 -0.25717837 0.1331011 0.2918237
000020 12 ff dc be 42 a5 6e 3d df f0 ef 3e c0 9c 6d be
       -0.43163353 0.05826307 0.46863458 -0.23204327
000030 b1 a0 bc 3e ea 32 ee be 2c 3d e6 3e c4 89 b0 bd
       0.36841348 -0.4652322 0.44968545 -0.08620027
000040 cb c8 d5 3e 93 bd f5 3e 3e 71 25 3f f7 98 3e 3e
       0.41754755 0.47996196 0.6462592 0.18613039
000050 0c 66 58 3e 6c 9f 1c 3e 2a 5b aa 3d 14 39 42 be
       0.21132678 0.1529519 0.083181694 -0.18967086
000060 4a 15 dd bc 22 a9 a6 3d d8 e1 e1 3d 2e b9 dd be
       -0.02698769 0.08137728 0.110294044 -0.43305343
000070 6d 1b b8 3e 5e 18 44 3c fb 7e c7 be 39 be 0f 3f
       0.35958424 0.0119687 -0.38964066 0.5614963
000080 5c 0f 04 3f 5d 1e 2a 3d ff df 52 3e a5 b3 d9 be
       0.51585937 0.041532863 0.2059326 -0.4251987
000090 1d 8f 85 bd 84 e7 82 be 77 e8 3e 3f e0 dd be 3d
       -0.06521437 -0.25567257 0.74573463 0.09319663
0000a0 dd 01 21 3e 8d e7 37 3e 90 77 f7 3e 20 2c 09 3f
       0.15723367 0.17959423 0.48333406 0.53582954
0000b0 1d 5d 12 3f 98 9e 1b 3f 53 69 85 3e c6 d5 0b be
       0.5717333 0.6078887 0.26056919 -0.13655767
0000c0 d9 34 7f 3e 23 b1 1a 3e be e5 f7 be 23 51 e9 3e
       0.24922504 0.15106635 -0.48417467 0.45569715
0000d0 5b 6c 81 be bf 0b 7d be 9f e3 35 bd 4b 78 21 3f
       -0.2527798 -0.24711512 -0.04440653 0.6307418
0000e0 d6 7d 12 3e ac bc b0 3e 26 07 e5 3e f5 e2 90 3e
       0.14305815 0.34518945 0.44732016 0.28298154
0000f0 33 c1 c4 3e 9e c3 c4 3e 16 ee 6a 3e 73 d4 f5 bd
       0.3842865 0.38430494 0.22942385 -0.12003412
000100 2b 2d b9 be 30 50 f2 3d ac 81 81 3e 3e 67 a9 be
       -0.36167273 0.11831701 0.25294244 -0.3308658
000110 80 29 8d 3d a3 a3 0a 3f dd 6f 3a 3f 3d fb b9 3e
       0.06892681 0.5415594 0.7282694 0.36324492
000120 e4 b5 f3 be 76 cf a3 bd 90 49 87 3e d5 cc 00 bf
       -0.4759971 -0.079985544 0.2642331 -0.5031255
000130 2f 79 a9 bc f3 39 0d bf c4 59 82 3e b4 cb 17 3d
       -0.020687668 -0.5516655 0.2545911 0.0370595
000140 08 72 80 3f 81 1a 40 3e 36 0b 8b 3d 56 a7 a8 be
       1.00348 0.1876011 0.06789248 -0.32940167
000150 f6 6a 7a 3e 69 9c 25 3f ec b5 af be 90 83 17 bf
       0.24454865 0.6469179 -0.34318483 -0.59185123
000160 15 4c 61 be 8a 15 c0 3e f7 01 fb 3c 3f 8a e8 be
       -0.22001679 0.37516433 0.030640585 -0.45417973
000170 44 6f c4 be 05 12 f3 3e 37 66 c1 3d 16 a4 a0 3e
       -0.3836614 0.47474685 0.09443324 0.31375188
000180 67 a8 b4 3e 30 be 5c be 4b d3 6b 3d f0 ed 37 3f
       0.3528473 -0.21556926 0.05757455 0.7184744
000190 a2 a4 63 3e 8e 38 8e 3e 38 4c 23 be 0b 76 1b be
       0.22230771 0.27777523 -0.15947044 -0.15181749
0001a0 b5 82 10 3e 22 ad 69 be 2e fa 87 be 5c 6c f6 3e
       0.14112361 -0.22819951 -0.2655806 0.48129547
0001b0 e2 77 8d bb 6e 4c 07 bf 05 39 20 bf 51 27 1a bf
       -0.0043172697 -0.52851 -0.62587005 -0.6021624
0001c0 33 d2 8d 3d 5f ae ea 3d 42 10 2b bf 24 81 13 bf
       0.06924858 0.1145904 -0.6682168 -0.5761893
0001d0 34 a4 0c 3f 15 00 08 3f cb 8f c9 3e fa e1 5d be
       0.54938054 0.53125125 0.39367518 -0.21668234
0001e0 ad 15 04 be e0 33 68 3d 9c 0b c2 be 10 b1 0e bf
       -0.12898894 0.056690097 -0.37899482 -0.55738926
0001f0 79 5c 2b 3d 02 49 fb bc ba 35 d3 be 22 f7 65 bf
       0.041836236 -0.030674461 -0.41251928 -0.8983022
000200 8a f0 1b 3f e3 3b 2a 3f b0 d0 54 be 05 05 11 bf
       0.6091391 0.6649763 -0.20782733 -0.56648284
000210 85 09 38 3e 1d da d6 bc 2c 4e 42 bd ae 8a de be
       0.17972381 -0.026227051 -0.04743783 -0.4346518
000220 cf 03 72 be a4 2b a5 3e e1 56 e6 3e d1 5d d9 bd
       -0.23634265 0.32259858 0.44988158 -0.10613597
000230 13 08 84 bd b2 e7 0a be 26 c6 91 bc a1 b7 7d be
       -0.064468525 -0.13564947 -0.01779468 -0.2477708
000240 91 c1 e0 3d f5 d9 89 3d ae ae 1d be a8 3f 85 3e
       0.1097442 0.06731025 -0.15398666 0.26025128
000250 1e 81 75 3e fc 88 d0 be 7a db 34 3f 67 c7 df 3c
       0.23975036 -0.4072951 0.70647395 0.027316762
000260 7b 02 8e bd f3 4a 9a 3d 87 2e 09 be c8 23 d1 bd
       -0.06934067 0.07533827 -0.13396655 -0.10211903
000270 74 26 22 3f e3 5c 67 be cf 66 9d bc c4 1b de bd
       0.63339925 -0.22594027 -0.019214062 -0.108451396
000280 3f f8 fb 3e f2 62 05 be c3 95 37 be a3 94 55 be
       0.49212834 -0.13026026 -0.17928223 -0.20857482
000290 27 c6 ea be b5 e3 7e 3f e5 a2 c1 bd 55 00 e7 bd
       -0.45854303 0.99566203 -0.09454898 -0.1127936
0002a0 3c 5c cb 3e a2 fa 9e 3e d7 1a 21 bf 25 d8 d1 be
       0.39718807 0.31050593 -0.6293158 -0.40985218
0002b0 10 48 ee bd a5 ba 2e 3f e2 ae 63 3f 3b 8b 71 3e
       -0.116348386 0.68253547 0.88938725 0.23588268
0002c0 6d 49 1f be f4 3b 79 bf db ad bc 3e 3e 31 95 be
       -0.15555353 -0.97357106 0.3685139 -0.2913913
0002d0 27 58 bf 3e 63 f2 f2 be 62 49 7c 3e d1 89 39 be
       0.37371942 -0.4745055 0.24637368 -0.18118979
0002e0 99 f1 ef 3e 09 f2 ab bd c2 5f 03 3f f3 d6 8b 3e
       0.46864012 -0.08395774 0.5131799 0.2731243
0002f0 42 16 7f bc 02 f0 b3 3e 91 69 27 bf 74 4b bd be
       -0.0155692715 0.3514405 -0.65395457 -0.3697163
000300 95 dd f8 3d 33 59 5a bf 3d 38 78 3e c1 ba 95 3e
       0.121516384 -0.8529236 0.24240203 0.29244044
000310 cd 01 82 3e f3 df 19 be 5f 10 b7 be 09 1c dd bd
       0.25392 -0.15026836 -0.35754678 -0.10796363
000320 f0 0c 0c be 53 1c d7 3c 7b 79 77 be e3 c0 b8 3d
       -0.1367681 0.026258623 -0.24167435 0.09021165
000330 39 ff 5a be 73 de e6 be 33 43 23 3d 74 4d 83 3d
       -0.21386422 -0.4509159 0.039859008 0.064112574
000340 d5 e5 16 3d ca f6 c6 3a a1 85 de be 0c 46 bd 3e
       0.03684028 0.001517975 -0.43461326 0.36967504
000350 f1 1f 21 bd ef e9 d1 3e a5 73 b6 be fb 00 9b be
       -0.039337102 0.4099879 -0.35635105 -0.30274186
000360 bc 66 df 3e 21 8b ce 3e 92 97 39 3f c4 8f 0b be
       0.43633068 0.40340522 0.724969 -0.13629061
000370 79 b4 29 bf d8 d2 a1 3e ad 33 28 3f b8 f0 56 3e
       -0.66291004 0.31606174 0.6570385 0.20990264
000380 22 d6 e9 be 48 74 2a 3f 19 47 b7 be 53 e1 9c 3d
       -0.45671183 0.6658368 -0.3579643 0.07660165
000390 0a 03 23 3d 67 b8 2c 3f 99 84 21 be 18 c8 7f be
       0.03979782 0.67468876 -0.15773238 -0.24978673
0003a0 eb 4d 8b 3f 5e 5e 3a bf 9d 5b a9 be 3a 9a 8f be
       1.0883154 -0.7280024 -0.33077708 -0.28047353
0003b0 e1 b3 38 be 79 31 fb bc 62 94 34 bd 7a 52 f6 bc
       -0.18037368 -0.030663239 -0.04408682 -0.030068625
0003c0 24 98 02 bf b1 bb 22 3d da 85 a8 be 98 64 f0 3e
       -0.510134 0.039729778 -0.3291462 0.46951747
0003d0 03 2d 3c 3c 2f 3f 56 3e 90 7a 47 3e b0 0e d2 3e
       0.011485341 0.2092254 0.19480348 0.4102683
0003e0 81 b7 6e 3e 1a 4e 10 be 77 b9 a9 be 85 29 77 3d
       0.23312189 -0.14092293 -0.3314931 0.06034233
0003f0 c4 a0 cc be da f9 b2 be 19 4b a8 3e 74 3a 9b 3e
       -0.39966404 -0.34956247 0.32869795 0.30318034

bias f4 [100]
000000 06 d8 a8 bf 33 1d 85 bf b2 fd ae bf 2a 4e 64 bf
       -1.3190925 -1.0399536 -1.3671172 -0.8918177
000010 95 8b 8c bf 39 6f 41 bf ae 75 8f bf 81 9b 90 bf
       -1.0980097 -0.7556034 -1.1207788 -1.1297456
000020 19 18 2f bf 2f ff 98 bf 68 74 9e bf d5 c9 a1 bf
       -0.68396145 -1.1952876 -1.2379274 -1.2639719
000030 36 31 87 bf 2d 41 87 bf 72 30 95 bf 08 86 a8 bf
       -1.0561893 -1.0566765 -1.1655409 -1.3165903
000040 a2 9d 4d bf ab 69 88 bf cc 06 45 bf 34 ac 49 bf
       -0.80318654 -1.0657247 -0.76963496 -0.78778386
000050 5c 16 99 bf 0b e9 ad bf 59 af 22 bf 03 2e a2 bf
       -1.1959949 -1.3586744 -0.6354881 -1.2670292
000060 f1 77 3a bf 2d c8 4a bf 0a 8f 05 bf eb 58 5f bf
       -0.72839266 -0.79211694 -0.52171385 -0.87245053
000070 4f 7e 09 bf d0 66 31 bf 46 ff 7f bf b2 90 8d bf
       -0.53708357 -0.69297504 -0.9999889 -1.1059783
000080 10 41 33 bf 4c 76 91 bf 0c 14 89 bf c4 e1 5d bf
       -0.7002115 -1.1364226 -1.0709243 -0.86672616
000090 df bd 61 bf 2c 17 91 bf 4a dc 41 bf d0 9e 7b bf
       -0.88180345 -1.1335196 -0.7572676 -0.98289204
0000a0 a8 b4 4f bf 1e a5 1e bf 14 5d 7d bf cb e8 3f bf
       -0.81135035 -0.619707 -0.9897015 -0.7496459
0000b0 12 00 80 bf 23 15 ba bf 5b 7f 4c bf 67 7f 7a bf
       -1.0000021 -1.45377 -0.7988183 -0.9785065
0000c0 08 59 dc be ff 8d 98 bf 6d 84 23 bf ab 2e 5a bf
       -0.43036675 -1.1918334 -0.6387394 -0.8522746
0000d0 04 69 81 bf 3f ed 51 bf 06 ad 44 bf 2a 65 8f bf
       -1.0110173 -0.82002634 -0.7682651 -1.1202748
0000e0 bd ec 85 bf 66 df 85 bf d3 2a 99 bf 17 d5 87 bf
       -1.0462872 -1.0458801 -1.1966194 -1.0611905
0000f0 b0 fb 9e bf ce c8 49 bf 0f f4 32 bf fc 79 48 bf
       -1.2420559 -0.7882203 -0.69903654 -0.78311133
000100 44 e3 84 bf be eb 8d bf 4e d8 97 bf 61 c2 60 bf
       -1.0381856 -1.1087568 -1.1862886 -0.877966
000110 8d ac 8d bf d2 e6 97 bf 5b f3 8c bf 14 58 83 bf
       -1.1068283 -1.1867316 -1.1011766 -1.0261254
000120 20 6b 4f bf 30 54 5e bf 22 75 00 bf ec 51 84 bf
       -0.81022835 -0.8684721 -0.5017873 -1.03375
000130 2b 1a 31 bf bb 84 9b bf 5d 0d 51 bf 18 85 86 bf
       -0.69180554 -1.2149881 -0.81661016 -1.0509367
000140 f7 f6 28 bf f5 c6 4e bf ee 49 80 bf b2 d3 87 bf
       -0.6600184 -0.80772334 -1.0022562 -1.0611479
000150 95 7a 9d bf ee 41 b0 bf 98 e9 8f bf c4 d5 8f bf
       -1.2303034 -1.377012 -1.1243162 -1.1237111
000160 d9 a7 8b bf e3 b6 89 bf 86 ea 23 bf 5b c8 59 bf
       -1.0910598 -1.0758938 -0.6402973 -0.85071343
000170 61 ab 8e bf 27 2c 17 bf 2a ef 54 bf 06 68 94 bf
       -1.1146051 -0.59051746 -0.83177435 -1.1594245
000180 40 40 68 bf 38 c6 84 bf 7d e6 85 bf 7a 7d 7b bf
       -0.9072304 -1.0372992 -1.0460964 -0.9823834

weight f4 [1, 100]
000000 ce 45 03 3e 05 1d 9c 3d 45 d1 02 bf 13 f4 ac bd
       0.12819597 0.076227225 -0.5110057 -0.08444991
000010 5e 68 ef 3d 41 10 f9 3d 55 f0 ad bd 4a 17 ef be
       0.11689828 0.12161303 -0.08493105 -0.46697456
000020 a8 71 69 3e e1 b3 c6 bd 9c 96 9e bd 12 1a 24 bf
       0.22797263 -0.09702278 -0.0774357 -0.6410228
000030 e8 09 c9 bd 42 94 8b be e7 cd 04 3e f9 a5 ad bd
       -0.098163426 -0.2726155 0.1296917 -0.084789224
000040 33 12 c2 3d 96 e6 a3 3e 7c 78 61 bd c0 67 f7 bd
       0.094761275 0.3201186 -0.055046543 -0.120803356
000050 d1 ef 5a 3e 64 a5 19 bf 90 4a 30 3e 20 e8 12 3e
       0.21380545 -0.6001799 0.17215943 0.14346361
000060 d3 2e 57 bd b7 58 b3 be 81 49 ef bd 38 c1 16 3d
       -0.05253489 -0.35028622 -0.11683942 0.03680536
000070 77 48 86 be 59 c4 1a 3d 22 cb 6c 3d 07 14 df 3d
       -0.2622716 0.037784908 0.05781091 0.10892492
000080 2d da 28 3e 42 dc 01 bf e5 ac 84 be 31 fa 13 be
       0.16489477 -0.5072671 -0.25913158 -0.14450909
000090 18 91 02 bf 90 45 e2 3d 42 3a 3d 3e 19 9b 9e 3e
       -0.51002645 0.11048424 0.18479255 0.30977705
0000a0 c5 4d 0c bb 0c 7c f8 be 20 64 3d 3e 33 18 cb 3d
       -0.002140866 -0.4853214 0.18495226 0.09916725
0000b0 35 43 50 3e 29 71 d3 3d 67 05 ec 3d 9f fa a5 bd
       0.20338137 0.10324318 0.11524468 -0.08104443
0000c0 9b 3a 89 bd 60 f6 b3 be a3 a3 4e be 91 ec 54 bd
       -0.06700631 -0.35148907 -0.2017961 -0.05198342
0000d0 e6 fe 3e 3d 7d 26 01 bd 2d d1 08 3e 2d 69 ce be
       0.04662981 -0.031530846 0.13361044 -0.40314618
0000e0 ca 45 cf 3d 38 10 1e 3c 0a 4b 77 3e 44 51 dd be
       0.10120733 0.009647422 0.24149719 -0.43226063
0000f0 27 79 3a bf 27 c0 04 3e 76 a5 19 3d b2 95 d5 3d
       -0.72841114 0.12963925 0.03751131 0.10428943
000100 b2 94 28 3d 48 f0 f6 b8 e6 ff bd 3d f4 e2 82 3c
       0.041157432 -0.0001177495 0.092773244 0.01597736
000110 57 2e 42 bd 1f 19 24 bf 76 7e 2b be 3a b9 17 3e
       -0.047407474 -0.6410083 -0.1674746 0.14816752
000120 2a 8f 2a be 6c 98 d6 bd e3 7d d9 3d 6a 88 31 be
       -0.16656175 -0.10478291 0.10619714 -0.17337194
000130 f5 aa 53 3e fb 40 b3 bd 96 14 b2 bb de 00 49 bd
       0.20670684 -0.087526284 -0.005434583 -0.049073093
000140 48 87 fa 3d 50 0e d2 3e 34 69 9c 3e be ff 82 bd
       0.12232834 0.41026545 0.30549014 -0.06396435
000150 65 f4 81 be 97 4b 1f bf de 56 03 bf 96 09 97 bc
       -0.2538177 -0.62224716 -0.51304424 -0.018437188
000160 44 eb e4 3d 38 6f 44 3d 00 85 55 3e 6c fc cc bc
       0.11177686 0.04795763 0.20851517 -0.025022708
000170 ac 93 40 3e b6 3e 9c 3e fa 16 47 bd cf 03 0f bd
       0.18806332 0.30516595 -0.048605897 -0.03491574
000180 0e 11 cf bd 64 ec d1 3d 64 02 75 3d 62 ab c9 3d
       -0.10110675 0.10250166 0.059816733 0.09847142
