tmp/learner_store/checkpoint.pt (torch_old, 10489 bytes, 3 tensors)

weight f4 [100, 10]
0	0xbf03e680	-0.5152359
1	0x3f09f036	0.5388216
2	0x3eff2cb3	0.4983879
3	0xbeb11834	-0.34588778
4	0xbe452707	-0.19253169
5	0x3d01d44e	0.03169661
6	0xbf099d20	-0.5375538
7	0xbe24f50b	-0.16109101
8	0x3e80faf0	0.2519145
9	0xbef8afec	-0.48571718
10	0x3dabecf0	0.083948016
11	0xbe2870c0	-0.1644926
12	0xbf05fccd	-0.5233887
13	0x3ef7108b	0.4825481
14	0xbea76d58	-0.3270061
15	0x3ef783ca	0.48342735
16	0xbe050007	-0.12988292
17	0xbebc6ac4	-0.36800206
18	0xbb16e0dd	-0.0023022213
19	0xbdbe2186	-0.09283738
20	0xbeda675d	-0.42656985
21	0x3d655414	0.055988386
22	0xbf6eea59	-0.93326336
23	0xbeb8d8cd	-0.36102906
24	0x3f1b81e1	0.60745054
25	0xbdaef2d1	-0.08542407
26	0xbf027a1e	-0.50967586
27	0xbeba7b0c	-0.36422002
28	0xbf1d2072	-0.6137763
29	0xbf42359a	-0.7586304
30	0x3ee7981c	0.45233238
31	0xbe7b6f87	-0.24554263
32	0x3f1360ee	0.5756978
33	0xbf33220f	-0.69973844
34	0x3e8510b4	0.25989306
35	0xbd6cb586	-0.0577903
36	0x3e0480cc	0.12939757
37	0xbe944710	-0.28960466
38	0x3ef67658	0.48137164
39	0x3ecc3485	0.3988382
40	0x3f967d97	1.1757077
41	0xbe80e8d7	-0.25177643
42	0xbe2b4ef2	-0.16729334
43	0x3f147c07	0.5800175
44	0xbf026ac5	-0.5094417
45	0xbf010ff2	-0.50414956
46	0xbf68fd1a	-0.910112
47	0x3e5f5a18	0.21811712
48	0x3e6edd5b	0.23326628
49	0xbf35952a	-0.7093073
50	0xbe801831	-0.25018457
51	0xbe5468b9	-0.20743074
52	0xbec04063	-0.37549123
53	0xbe1017c3	-0.14071564
54	0xbec30ce8	-0.38095784
55	0xbd573f4d	-0.052550603
56	0xbd930afa	-0.07179828
57	0xbe73feec	-0.23827714
58	0xbe7a9462	-0.24470666
59	0xbcb95f74	-0.022628523
60	0xbe8a175b	-0.26970944
61	0xbf8bd70f	-1.0925006
62	0xbf00e446	-0.5034832
63	0xbd87604d	-0.06610165
64	0xbe5ce346	-0.21571073
65	0xbe71e90a	-0.23624054
66	0x3d39729d	0.04527532
67	0xbec8d593	-0.39225444
68	0xbe37ce32	-0.17949751
69	0xbec9144b	-0.39273295
70	0x3f7e4467	0.99323124
71	0xbf5e48c8	-0.86829805
72	0x3f02de60	0.5112057
73	0xbec7bffd	-0.39013663
74	0xbf6d1012	-0.92602646
75	0x3f46f50a	0.7771765
76	0xbefabcfb	-0.48972306
77	0x3f18c689	0.5967794
78	0x3e845a99	0.2585037
79	0x3d88ac27	0.066734605
80	0xbf74f465	-0.95685416
81	0xbf16392f	-0.58681005
82	0xbe48f579	-0.1962489
83	0xbdc4f436	-0.09616892
84	0x3e87cd92	0.26524025
85	0x3ef19ca9	0.47189835
86	0x3e841d1c	0.2580346
87	0xbe85cdb6	-0.26133507
88	0xbf06b3c6	-0.5261806
89	0xbe845a61	-0.25850204
90	0xbe4a1987	-0.197363
91	0x3e366e37	0.17815481
92	0x3e97c698	0.29643703
93	0x3dae7234	0.08517876
94	0xbe92c1b7	-0.28663418
95	0x3e49a479	0.19691648
96	0x3e4db61a	0.20088997
97	0x3dee5f45	0.11639265
98	0x3e962730	0.29326773
99	0xbd6a2e51	-0.057173077
100	0xbef3226a	-0.47487193
101	0x3ef670c9	0.48132923
102	0xbf09748a	-0.5369345
103	0x3d15d655	0.036581356
104	0xbef80e71	-0.48448518
105	0x3e9ca419	0.30593947
106	0xbe68e3eb	-0.22743194
107	0x3eb0b2b0	0.34511328
108	0x3f18e0b2	0.5971786
109	0xbe24b5f8	-0.1608504
110	0x3e2c1e5b	0.16808455
111	0x3d3aff33	0.045653533
112	0xbdef41b8	-0.11682457
113	0xbd1fcb47	-0.03901222
114	0x3e2d7f0d	0.16942997
115	0x3ead1583	0.33805475
116	0xbe9fcee6	-0.31212538
117	0x3e7e8674	0.24855977
118	0xbed50585	-0.41605774
119	0xbe061b08	-0.13096249
120	0xbef2c53c	-0.47416103
121	0xbe5f9f70	-0.21838164
122	0x3f6070f6	0.87672365
123	0xbed86fbe	-0.42272753
124	0xbf10d5fd	-0.5657652
125	0xbf4e079b	-0.80480355
126	0xbde5889e	-0.11207698
127	0x3f7f5abf	0.9974784
128	0x3ca3d480	0.019998789
129	0xbe3c2479	-0.18373288
130	0x3f545944	0.8294871
131	0xbf1b633b	-0.6069829
132	0x3f5706ce	0.8399476
133	0x3e1aaae4	0.15104252
134	0x3ec4eb20	0.38460636
135	0xbe49663d	-0.19667907
136	0x3eda5bb7	0.42648098
137	0xbd8de4a9	-0.06928379
138	0x3eea1599	0.45719603
139	0xbe3b4ee6	-0.18291816
140	0xbe6c08f8	-0.23050296
141	0xbef33a9d	-0.47505656
142	0xbee2fa16	-0.44331425
143	0xbe95e40e	-0.29275554
144	0xbe12a67a	-0.14321318
145	0xbf099c51	-0.53754145
146	0x3f0121ce	0.50442207
147	0x3f025b9e	0.50921047
148	0x3ecc9dc1	0.39964107
149	0xbe9eac16	-0.30990666
150	0xbedb88b1	-0.42877725
151	0xbf37d747	-0.7181286
152	0x3e24d616	0.16097292
153	0x3f0ec212	0.5576488
154	0x3f1f35e2	0.62191594
155	0x3ed7a6a6	0.4211933
156	0x3e829f74	0.25512278
157	0x3e346822	0.17617849
158	0x3f64368c	0.8914573
159	0x3f18d4c6	0.59699667
160	0xbf107591	-0.5642939
161	0xbdfb53bc	-0.122718304
162	0x3f77f35a	0.968557
163	0xbf2d9461	-0.67804533
164	0x3e582171	0.21106507
165	0xbee62d8f	-0.44956633
166	0x3f317e13	0.69333
167	0x3f0b710a	0.5446936
168	0x3ee6c993	0.45075664
169	0x3effcd2b	0.49961218
170	0x3f0ddbd3	0.5541355
171	0x3eb23b23	0.34810743
172	0xbe1bc98e	-0.15213606
173	0x3e88979b	0.26678166
174	0xbeb05f73	-0.34447822
175	0xbf6ed3b1	-0.93291765
176	0x3d04b6e2	0.032400973
177	0xbe03cd7e	-0.12871358
178	0x3f0f3674	0.55942464
179	0x3f736002	0.9506837
180	0x3e91f41e	0.2850656
181	0x3e2e540a	0.17024246
182	0xbf3b6222	-0.73196614
183	0x3f1bbf89	0.60839134
184	0xbe304154	-0.1721242
185	0x3e9bf5eb	0.30461058
186	0xbe86b7ab	-0.26312003
187	0xbec59df8	-0.38597083
188	0x3cccf938	0.02502118
189	0xbe77ed86	-0.24211702
190	0x3e4e0368	0.20118487
191	0xbdbdb2c2	-0.09262611
192	0x3ed175f7	0.40910313
193	0x3dc4beaa	0.09606679
194	0xbeb849d8	-0.35993838
195	0x3f129d07	0.57270855
196	0xbe810169	-0.25196388
197	0x3f08018f	0.5312738
198	0x3e43ab7a	0.19108382
199	0xbe52e989	-0.20596899
200	0xbe124785	-0.14285095
201	0xbe2d280b	-0.16909806
202	0xbda544df	-0.08069777
203	0x3eeaf2bf	0.45888326
204	0x3db50221	0.08838297
205	0xbf3955f6	-0.7239679
206	0xbe261d6b	-0.1622216
207	0xbd559806	-0.052146934
208	0x3f365476	0.7122263
209	0xbe6b4805	-0.22976692
210	0xbda744e8	-0.0816744
211	0xbeb3e614	-0.35136473
212	0xbf109434	-0.5647614
213	0x3f28bb32	0.6591064
214	0xbef7d0e7	-0.48401567
215	0xbf868153	-1.0508217
216	0x3e587277	0.21137415
217	0x3ec790db	0.38977703
218	0x3df6dfc4	0.12054399
219	0xbea6c432	-0.3257156
220	0xbe4ceaa5	-0.20011385
221	0x3ef47735	0.47747198
222	0x3ef93695	0.48674455
223	0x3e06fd87	0.1318265
224	0xbddc09a7	-0.107440285
225	0x3e1c5171	0.15265442
226	0x3de9d1d0	0.11416972
227	0x3f26f8ea	0.6522356
228	0x3d9a0b88	0.07521731
229	0xbe6e20cc	-0.23254699
230	0x3efa381c	0.48870933
231	0x3ed20a7d	0.41023627
232	0x3f82f504	1.0231023
233	0xbf4110cd	-0.7541626
234	0x3cb8e2f9	0.022569166
235	0x3e55380b	0.2082216
236	0xbdf4f4e9	-0.119607754
237	0xbf2a99d7	-0.6664099
238	0xbeafbbac	-0.3432287
239	0x3f317075	0.6931222
240	0x3d9e7018	0.07736224
241	0x3dde064a	0.10841043
242	0x3f78790f	0.9705972
243	0x3ee50f21	0.44738105
244	0x3ebde0cd	0.37085572
245	0xbd954fa5	-0.072905816
246	0x3f32d59a	0.6985718
247	0x3e643e99	0.22289504
248	0x3e9ab492	0.3021589
249	0xbc8be293	-0.017075812
250	0xbe89a58e	-0.2688412
251	0xbee7e11e	-0.45288938
252	0xbf252b78	-0.64519453
253	0x3dbea56a	0.09308894
254	0xbe2c6876	-0.16836724
255	0x3f154b40	0.5831795

bias f4 [100]
0	0xbf89abf3	-1.07556
1	0xbf842f0c	-1.0326858
2	0xbf8e58ce	-1.1120851
3	0xbf4b981a	-0.79528964
4	0xbf17b364	-0.59258103
5	0xbf600894	-0.8751309
6	0xbf807d12	-1.0038168
7	0xbf4ed5dd	-0.8079508
8	0xbf98a46a	-1.1925175
9	0xbfa680ea	-1.3008091
10	0xbf588695	-0.84580356
11	0xbf8c97f8	-1.0983877
12	0xbf44d6b0	-0.7689009
13	0xbf5e8c71	-0.86933047
14	0xbf805567	-1.0026063
15	0xbf0ffddd	-0.5624674
16	0xbef2891c	-0.4737023
17	0xbf9439cd	-1.1580139
18	0xbf743801	-0.95397955
19	0xbf4519be	-0.76992404
20	0xbf5279ed	-0.82217294
21	0xbf911467	-1.1334351
22	0xbfade6b8	-1.3586035
23	0xbf7b89dd	-0.9825724
24	0xbf68a04f	-0.9086961
25	0xbf69d620	-0.91342354
26	0xbf72073c	-0.9454229
27	0xbf6f30ca	-0.9343382
28	0xbf93adfb	-1.153747
29	0xbf83efef	-1.0307597
30	0xbef88c58	-0.48544574
31	0xbf6fe4c9	-0.93708473
32	0xbf753c07	-0.9579472
33	0xbf75f13f	-0.9607124
34	0xbf9f0954	-1.2424722
35	0xbf3f58a5	-0.74744636
36	0xbf7eb8c9	-0.9950071
37	0xbf8b1a1d	-1.0867344
38	0xbfaed3ca	-1.3658383
39	0xbf82df0c	-1.0224319
40	0xbfbc8cef	-1.473051
41	0xbf50df10	-0.81590366
42	0xbfb76556	-1.43278
43	0xbf453914	-0.7704022
44	0xbf9798fe	-1.1843565
45	0xbfbcf5a2	-1.4762461
46	0xbf83bf25	-1.0292708
47	0xbf77a532	-0.96736443
48	0xbf66c328	-0.90141535
49	0xbf6dfb7e	-0.9296187
50	0xbf3cf987	-0.7381825
51	0xbf94a028	-1.1611376
52	0xbf6a73bf	-0.91582865
53	0xbf739dc0	-0.9516258
54	0xbf9d4dd5	-1.2289377
55	0xbf86a0dd	-1.0517842
56	0xbf3dcc05	-0.74139434
57	0xbf178189	-0.5918203
58	0xbf1e3feb	-0.6181628
59	0xbf35e40e	-0.7105111
60	0xbf5ac925	-0.8546317
61	0xbf7b1e61	-0.9809323
62	0xbfbbae49	-1.4662563
63	0xbf66e93a	-0.90199625
64	0xbf6d026e	-0.9258183
65	0xbf8ada5b	-1.0847887
66	0xbfc272d3	-1.5191292
67	0xbf9ff076	-1.2495258
68	0xbf7e252c	-0.9927547
69	0xbf67ca99	-0.90543514
70	0xbf8f14ea	-1.1178257
71	0xbf6f64c0	-0.9351311
72	0xbf477989	-0.7791982
73	0xbfa8ba43	-1.3181843
74	0xbfc0d416	-1.5064723
75	0xbfaa220d	-1.3291641
76	0xbf8f230e	-1.1182573
77	0xbf4ae9c5	-0.79262954
78	0xbf6535f8	-0.89535475
79	0xbf68b975	-0.90907985
80	0xbf50b96a	-0.8153292
81	0xbf80ade1	-1.0053064
82	0xbf3c774b	-0.73619527
83	0xbfb48bf4	-1.410521
84	0xbf32a4de	-0.6978282
85	0xbf0ee7a8	-0.5582223
86	0xbf1fa9a3	-0.6236822
87	0xbf346ce8	-0.7047868
88	0xbf53a73d	-0.8267706
89	0xbeb0b48a	-0.3451274
90	0xbf83688e	-1.0266283
91	0xbfa465fe	-1.2843626
92	0xbf6a32b1	-0.914836
93	0xbf71a12a	-0.9438654
94	0xbf311201	-0.69168097
95	0xbfa4744a	-1.2847989
96	0xbf89d242	-1.076729
97	0xbf45cdac	-0.77266955
98	0xbf745eef	-0.9545736
99	0xbf4c2e23	-0.797579

weight f4 [1, 100]
0	0x3c630fa8	0.013858713
1	0x3e29f7ba	0.16598406
2	0xbef73ae5	-0.4828712
3	0x3e07fd06	0.13280115
4	0xbea65e39	-0.3249376
5	0x3c807400	0.015680313
6	0xbdec0c5f	-0.11525797
7	0xbeb68fc5	-0.35656562
8	0xbde916f0	-0.11381328
9	0x3eabeaf8	0.33577704
10	0xbc268695	-0.010163923
11	0x3c137075	0.00899898
12	0xbea626ca	-0.3245147
13	0x3e5a8782	0.21340755
14	0x3d186c92	0.037212916
15	0x3eacdefc	0.33763874
16	0x3e451ac2	0.19248489
17	0x3f323f21	0.6962758
18	0x3debdcdd	0.11516736
19	0xbd8193d8	-0.06327027
20	0xbd78da1d	-0.060754884
21	0xbea7e2d7	-0.32790253
22	0x3e808751	0.25103238
23	0xbecddab4	-0.4020592
24	0x3ea07376	0.3133809
25	0x3d991d2e	0.07476269
26	0x39bf5e8c	0.00036500802
27	0x3e03ee36	0.12883839
28	0xbe0152ea	-0.12629285
29	0x3e15e570	0.14638305
30	0xbd3a4414	-0.04547508
31	0xbd64e84b	-0.055885594
32	0xbe7994a2	-0.24373105
33	0xbcfe66d0	-0.031054884
34	0x3ef7e8d4	0.4841982
35	0xbd8236e0	-0.06358123
36	0x3d63f532	0.05565376
37	0x3ec559f4	0.3854519
38	0x3f025dd0	0.50924397
39	0x3ca3204d	0.019912863
40	0x3f4f6c89	0.81024987
41	0xbd2830d4	-0.04106219
42	0x3f194e66	0.5988525
43	0x3ecc1d61	0.39866164
44	0xbd84786f	-0.064682834
45	0x3f30ca6b	0.69058865
46	0x3e9a4c2b	0.30136237
47	0xbe86afe7	-0.26306078
48	0x3d61bf52	0.055114098
49	0xbe2e16d1	-0.17000891
50	0xbdafe2e2	-0.08588196
51	0x3ecb2284	0.3967477
52	0x3e27692f	0.16348718
53	0x3e7da8c4	0.2477141
54	0xbec5ac3e	-0.38607973
55	0xbd5ef7d4	-0.054435566
56	0x3e084e30	0.13311076
57	0x3eb3350d	0.35001412
58	0xbe8f2715	-0.27959505
59	0xbe27b926	-0.16379222
60	0x3b985c8f	0.0046497057
61	0xbde5fa73	-0.1122941
62	0x3e890f76	0.26769608
63	0x3e73d864	0.23813015
64	0x3e3c1dbf	0.18370722
65	0x3ef52ed4	0.4788729
66	0x3f0c1dde	0.54733074
67	0x3e8acac4	0.27107823
68	0x3e02481f	0.12722825
69	0xbe86ebc3	-0.26351747
70	0xbe2091bb	-0.15680592
71	0xbd0be887	-0.034157302
72	0x3e1df6ea	0.15426221
73	0xbdd95268	-0.10611421
74	0x3ef42778	0.47686362
75	0x3ee4ddd1	0.44700482
76	0x3e7cd234	0.24689561
77	0x3dd18e50	0.10232222
78	0x3e24466c	0.16042489
79	0x3e992f44	0.29918873
80	0x3e405980	0.18784142
81	0x3e773ac4	0.24143511
82	0xbce306bc	-0.027713172
83	0x3f28a1b5	0.65871745
84	0x3e3f697c	0.18692583
85	0xbe9fdc51	-0.31222776
86	0x3d06c8b8	0.032906264
87	0x3ea255c8	0.3170607
88	0x3d9d511a	0.076814845
89	0xbe78e11e	-0.24304625
90	0x3e19ce21	0.15020038
91	0x3e414b7c	0.18876451
92	0x3e1dc020	0.15405321
93	0x3c2ce2c3	0.010552111
94	0x3da66e82	0.081265464
95	0x3d9d8daf	0.076930396
96	0xbd4de3c8	-0.050266057
97	0xbe774ee7	-0.24151193
98	0xbe367d99	-0.17821349
99	0x3dfc3463	0.123146795
